uqX/models/trained_bnn_model.pth (torch, 20983 bytes, 25 tensors)

blinear1.weight_mu f4 [32, 1]
000000 3a ba 9e 3b 20 83 30 3d 13 53 13 bd 28 1e 61 3d
       0.0048439773 0.0430938 -0.035967898 0.0549604
000010 02 91 67 bd cc 70 aa bb 9a 6a a1 3c 44 e9 09 3d
       -0.056534775 -0.0052014347 0.019704152 0.033669725
000020 65 c0 32 bc d3 be ce bc 19 ec 7a 3e 64 21 d2 3c
       -0.010910128 -0.025237476 0.24504127 0.025650688
000030 f7 3e 0a 3d 8a 5f 9b bc c6 fa 67 bd cf 93 59 3b
       0.033751454 -0.018966455 -0.05663564 0.0033199673
000040 6c c5 d7 3d 03 f1 ba 3c 6b 6d 36 3c 66 4d c1 3b
       0.10535702 0.022820001 0.011134486 0.005899119
000050 19 18 bf 3c 3a 13 3d 3b 51 4f 8f be 35 ff ca bb
       0.02332692 0.0028850571 -0.279902 -0.006194974
000060 a0 dc b0 3c dc b4 8c bb 0f 54 31 3e 4d d3 54 bd
       0.021589577 -0.004294021 0.17317222 -0.051959325
000070 6e 24 4e bc 59 83 33 3c 80 36 b9 bd 58 09 ac 3d
       -0.012581928 0.010956609 -0.09043598 0.0840022

blinear1.weight_rho f4 [32, 1]
000000 70 0d 44 c0 aa 39 41 c0 2d d0 50 c0 77 41 33 c0
       -3.0633202 -3.0191445 -3.262706 -2.8008707
000010 d9 7a 3f c0 9c 01 3c c0 42 a9 4f c0 5e da 42 c0
       -2.991873 -2.9375982 -3.2447057 -3.044578
000020 6f 8f 57 c0 35 05 35 c0 5c 8c 54 c0 20 eb 4e c0
       -3.3681295 -2.8284428 -3.3210669 -3.233101
000030 5a 43 58 c0 c4 58 46 c0 1c b2 3b c0 c3 2f 69 c0
       -3.3791108 -3.0991678 -2.932746 -3.6435401
000040 ee 84 4e c0 9f 3e 53 c0 40 ad 51 c0 6c 57 5d c0
       -3.2268634 -3.300697 -3.2761993 -3.4584608
000050 b9 c0 2c c0 23 7a 4f c0 97 5b 60 c0 30 c1 44 c0
       -2.6992629 -3.2418296 -3.5055902 -3.0742912
000060 c5 a1 4f c0 1e 41 26 c0 c7 8d 52 c0 c4 72 47 c0
       -3.2442486 -2.5977244 -3.2899034 -3.1163797
000070 20 0e 3c c0 5b af 66 c0 e2 d4 6d c0 fb 2e 69 c0
       -2.9383621 -3.6044528 -3.7161183 -3.6434925

blinear1.bias_mu f4 [32]
000000 e2 c3 61 3c 20 1e e0 3c db d6 2e 3c da 59 bd 3b
       0.013779612 0.027358115 0.010671343 0.0057785334
000010 a5 86 93 3c 12 b1 c2 3a 78 95 f5 3b 26 67 79 3c
       0.01800854 0.0014853796 0.0074946247 0.015222346
000020 59 e2 61 3b 8b 4e d5 3c ab 7b cb 3d 0e 9f 1c 3b
       0.003446719 0.026038429 0.09935697 0.0023898515
000030 ba 89 52 3c be c1 a0 bb a6 14 b2 bc 0c aa 4a 3c
       0.012850219 -0.0049059084 -0.021738362 0.012369644
000040 a8 1c 01 3d 7e 63 e1 3c 30 72 02 3d f6 af 04 3c
       0.03152147 0.027513262 0.03184718 0.008098593
000050 98 3c 7b bb fe 3d 90 bc 4f 84 e9 3d f8 47 35 3c
       -0.0038335677 -0.017607685 0.11402189 0.011064522
000060 0e b5 86 3c cd c0 44 3c d0 f5 91 3d cd ab c3 bb
       0.016443755 0.012008858 0.07126963 -0.005971408
000070 c0 13 a1 bc 6d a3 9b 3b a1 59 57 3d d9 8c c0 3c
       -0.019662738 0.0047497065 0.05257571 0.023504661

blinear1.bias_rho f4 [32]
000000 82 c8 47 c0 da a2 63 c0 7a 35 5e c0 20 61 73 c0
       -3.121613 -3.5568147 -3.472014 -3.802803
000010 b0 9b 5d c0 aa 89 41 c0 a3 46 59 c0 bc a2 4b c0
       -3.4626274 -3.0240273 -3.3949363 -3.1818075
000020 fb b1 2f c0 e6 e1 3c c0 90 6e 76 c0 18 2a 4b c0
       -2.745238 -2.9512877 -3.8504982 -3.1744442
000030 6a 52 5a c0 3a 10 65 c0 cc 5c 4a c0 f9 ec 51 c0
       -3.4112802 -3.5791154 -3.1619139 -3.2800887
000040 75 d1 49 c0 20 5f 38 c0 2d 43 2c c0 31 83 63 c0
       -3.1534092 -2.880806 -2.6916 -3.5548823
000050 4d 6d 35 c0 f0 ff 48 c0 f8 26 2f c0 5a a2 51 c0
       -2.8347962 -3.1406212 -2.7367535 -3.2755342
000060 36 14 55 c0 55 44 47 c0 c4 09 4a c0 cd a1 4f c0
       -3.3293586 -3.1135457 -3.156846 -3.2442505
000070 4a cf 5b c0 e4 86 47 c0 63 1f 6a c0 63 9e 67 c0
       -3.434527 -3.117608 -3.6581657 -3.6190422

blinear1.weight_sampler.mu f4 [32, 1]
000000 3a ba 9e 3b 20 83 30 3d 13 53 13 bd 28 1e 61 3d
       0.0048439773 0.0430938 -0.035967898 0.0549604
000010 02 91 67 bd cc 70 aa bb 9a 6a a1 3c 44 e9 09 3d
       -0.056534775 -0.0052014347 0.019704152 0.033669725
000020 65 c0 32 bc d3 be ce bc 19 ec 7a 3e 64 21 d2 3c
       -0.010910128 -0.025237476 0.24504127 0.025650688
000030 f7 3e 0a 3d 8a 5f 9b bc c6 fa 67 bd cf 93 59 3b
       0.033751454 -0.018966455 -0.05663564 0.0033199673
000040 6c c5 d7 3d 03 f1 ba 3c 6b 6d 36 3c 66 4d c1 3b
       0.10535702 0.022820001 0.011134486 0.005899119
000050 19 18 bf 3c 3a 13 3d 3b 51 4f 8f be 35 ff ca bb
       0.02332692 0.0028850571 -0.279902 -0.006194974
000060 a0 dc b0 3c dc b4 8c bb 0f 54 31 3e 4d d3 54 bd
       0.021589577 -0.004294021 0.17317222 -0.051959325
000070 6e 24 4e bc 59 83 33 3c 80 36 b9 bd 58 09 ac 3d
       -0.012581928 0.010956609 -0.09043598 0.0840022

blinear1.weight_sampler.rho f4 [32, 1]
000000 70 0d 44 c0 aa 39 41 c0 2d d0 50 c0 77 41 33 c0
       -3.0633202 -3.0191445 -3.262706 -2.8008707
000010 d9 7a 3f c0 9c 01 3c c0 42 a9 4f c0 5e da 42 c0
       -2.991873 -2.9375982 -3.2447057 -3.044578
000020 6f 8f 57 c0 35 05 35 c0 5c 8c 54 c0 20 eb 4e c0
       -3.3681295 -2.8284428 -3.3210669 -3.233101
000030 5a 43 58 c0 c4 58 46 c0 1c b2 3b c0 c3 2f 69 c0
       -3.3791108 -3.0991678 -2.932746 -3.6435401
000040 ee 84 4e c0 9f 3e 53 c0 40 ad 51 c0 6c 57 5d c0
       -3.2268634 -3.300697 -3.2761993 -3.4584608
000050 b9 c0 2c c0 23 7a 4f c0 97 5b 60 c0 30 c1 44 c0
       -2.6992629 -3.2418296 -3.5055902 -3.0742912
000060 c5 a1 4f c0 1e 41 26 c0 c7 8d 52 c0 c4 72 47 c0
       -3.2442486 -2.5977244 -3.2899034 -3.1163797
000070 20 0e 3c c0 5b af 66 c0 e2 d4 6d c0 fb 2e 69 c0
       -2.9383621 -3.6044528 -3.7161183 -3.6434925

blinear1.weight_sampler.eps_w f4 [32, 1]
000000 dd c9 00 bf 18 c7 75 bf 25 ba a6 3f ac 9d e1 bd
       -0.5030802 -0.9600692 1.3025557 -0.11016402
000010 a7 72 16 bf b9 f4 aa bf e3 21 8b bf 26 ec fc be
       -0.58768696 -1.3355933 -1.0869716 -0.49398917
000020 f6 b0 2f 3f 9b 87 ac 3d 00 d2 02 3f 10 53 81 3f
       0.68629396 0.08424302 0.51101685 1.0103474
000030 51 c2 46 bf 14 c8 97 bf ef 88 93 bb f0 0c 94 bf
       -0.77640253 -1.1857934 -0.0045024077 -1.1566448
000040 50 1f 41 3f 8a 74 8f bf 85 a0 e8 3f 0e d4 c0 bf
       0.75438404 -1.120744 1.8173987 -1.5064714
000050 a6 ab e8 be b5 2a a5 be 1a 65 10 3f 58 35 8a be
       -0.45443457 -0.32259145 0.5640427 -0.26993823
000060 19 85 49 3f 91 f5 06 40 15 c4 7c bf f0 3f 8d 3e
       0.78718716 2.1087382 -0.987367 0.27587843
000070 67 0e cc be 62 84 a8 3e b7 86 ee 3e 9d 1b 6e 40
       -0.39854738 0.329135 0.46587154 3.7204354

blinear1.bias_sampler.mu f4 [32]
000000 e2 c3 61 3c 20 1e e0 3c db d6 2e 3c da 59 bd 3b
       0.013779612 0.027358115 0.010671343 0.0057785334
000010 a5 86 93 3c 12 b1 c2 3a 78 95 f5 3b 26 67 79 3c
       0.01800854 0.0014853796 0.0074946247 0.015222346
000020 59 e2 61 3b 8b 4e d5 3c ab 7b cb 3d 0e 9f 1c 3b
       0.003446719 0.026038429 0.09935697 0.0023898515
000030 ba 89 52 3c be c1 a0 bb a6 14 b2 bc 0c aa 4a 3c
       0.012850219 -0.0049059084 -0.021738362 0.012369644
000040 a8 1c 01 3d 7e 63 e1 3c 30 72 02 3d f6 af 04 3c
       0.03152147 0.027513262 0.03184718 0.008098593
000050 98 3c 7b bb fe 3d 90 bc 4f 84 e9 3d f8 47 35 3c
       -0.0038335677 -0.017607685 0.11402189 0.011064522
000060 0e b5 86 3c cd c0 44 3c d0 f5 91 3d cd ab c3 bb
       0.016443755 0.012008858 0.07126963 -0.005971408
000070 c0 13 a1 bc 6d a3 9b 3b a1 59 57 3d d9 8c c0 3c
       -0.019662738 0.0047497065 0.05257571 0.023504661

blinear1.bias_sampler.rho f4 [32]
000000 82 c8 47 c0 da a2 63 c0 7a 35 5e c0 20 61 73 c0
       -3.121613 -3.5568147 -3.472014 -3.802803
000010 b0 9b 5d c0 aa 89 41 c0 a3 46 59 c0 bc a2 4b c0
       -3.4626274 -3.0240273 -3.3949363 -3.1818075
000020 fb b1 2f c0 e6 e1 3c c0 90 6e 76 c0 18 2a 4b c0
       -2.745238 -2.9512877 -3.8504982 -3.1744442
000030 6a 52 5a c0 3a 10 65 c0 cc 5c 4a c0 f9 ec 51 c0
       -3.4112802 -3.5791154 -3.1619139 -3.2800887
000040 75 d1 49 c0 20 5f 38 c0 2d 43 2c c0 31 83 63 c0
       -3.1534092 -2.880806 -2.6916 -3.5548823
000050 4d 6d 35 c0 f0 ff 48 c0 f8 26 2f c0 5a a2 51 c0
       -2.8347962 -3.1406212 -2.7367535 -3.2755342
000060 36 14 55 c0 55 44 47 c0 c4 09 4a c0 cd a1 4f c0
       -3.3293586 -3.1135457 -3.156846 -3.2442505
000070 4a cf 5b c0 e4 86 47 c0 63 1f 6a c0 63 9e 67 c0
       -3.434527 -3.117608 -3.6581657 -3.6190422

blinear1.bias_sampler.eps_w f4 [32]
000000 5c ef e5 3f aa ea 80 3f f0 68 ea 3d 88 5a 93 3f
       1.7963672 1.0071614 0.114457965 1.1512003
000010 71 6c 6e 3f a8 3e 01 40 b8 27 0c bf e3 e7 87 bd
       0.9313422 2.0194492 -0.54748106 -0.06636026
000020 54 be 3f 3f de f0 14 bd 64 55 04 3f fb 93 83 bf
       0.7489979 -0.03636252 0.51692796 -1.0279535
000030 21 d3 1a 3e 2a 90 39 3f 55 13 87 3f 36 6e a4 bf
       0.15119602 0.724856 1.0552775 -1.2846134
000040 11 3f e7 bd 2f 78 b6 be ce 44 96 3f a6 12 52 be
       -0.11291326 -0.35638568 1.1739748 -0.20514926
000050 29 37 fc bf 22 8c 04 bf 34 85 95 3f 6e 88 d1 bf
       -1.9704334 -0.51776326 1.1681275 -1.636976
000060 94 19 5f 3f 51 c4 49 bf 3b d1 c1 be 33 7a b7 bf
       0.87148404 -0.7881518 -0.37854943 -1.4334167
000070 55 4e 37 3e b8 91 52 bf ee 65 70 3f 87 26 74 bd
       0.17900975 -0.822536 0.9390553 -0.059607055

blinear2.weight_mu f4 [32, 32]
000000 99 11 9f bc 88 ce 3f bc 95 0a ef bb 2a 9b 54 3c
       -0.01941757 -0.011706956 -0.0072949626 0.012976447
000010 e1 31 1e 3c 2d 2e a1 ba 29 d8 0e 3c bc 9d 00 3c
       0.009655447 -0.0012297087 0.008718529 0.007850107
000020 98 e5 ea b9 a4 82 50 3c ab f6 84 bc 78 11 85 bb
       -0.0004480302 0.01272646 -0.016230902 -0.0040609203
000030 e8 dc 32 3b e3 7f c1 3b b6 21 3d bc f6 b1 4d bb
       0.0027292315 0.005905138 -0.011543682 -0.003138659
000040 18 8a c1 3b 76 ec 0a bc 40 ba c3 3b b3 17 17 bc
       0.0059063546 -0.008479228 0.0059731305 -0.009221959
000050 08 d9 2a 3a 70 93 7e bc 1f 41 20 bc 3e 3a bd 3c
       0.00065173255 -0.0155380815 -0.009781151 0.023099061
000060 80 d3 a8 bb 38 c6 88 3b 4c 37 04 bc ae 34 8c bc
       -0.005152166 0.00417402 -0.008069824 -0.017114963
000070 c0 7f 39 bb fc b4 f8 bb 9b 8b bf 3b c5 ac f6 bc
       -0.0028304905 -0.0075899344 0.0058454997 -0.03011168
000080 90 ee ef 3c 6f 13 9f bc 7c 29 9f 3a 38 c0 64 b9
       0.02928856 -0.019418446 0.0012143101 -0.00021815381
000090 8c 93 c0 3b 05 41 05 bb d0 21 72 3a 0e 59 39 3c
       0.005876964 -0.0020332944 0.0009236606 0.011312736
0000a0 47 01 99 3c 2a d7 10 bc e2 df a7 3c 78 58 ac bc
       0.018677367 -0.008840362 0.020492498 -0.021038279
0000b0 02 0e 61 bb 52 f7 66 bc 94 a6 b0 3b 6c 8a 71 39
       -0.0034340625 -0.014097052 0.0053909514 0.00023035117
0000c0 1c bb 9a bb fd f9 b5 bc 1e a0 18 bc 6d 1e 5f 3c
       -0.004722012 -0.02221393 -0.009315519 0.013618094
0000d0 af 8e 96 bc d7 19 60 3b 33 f0 00 bd fc 2d 17 bc
       -0.018378584 0.003419509 -0.03147907 -0.009227272
0000e0 75 fa 14 3b c4 9c 61 bb 8c 25 54 bc a1 8e e2 bc
       0.0022732292 -0.0034425715 -0.012948405 -0.027655901
0000f0 c0 be 06 b9 b9 c1 0b bd ab 65 9f 3c a2 1f 6d bb
       -0.00012850296 -0.034120295 0.019457659 -0.0036182185
000100 4e e1 97 3b b1 53 90 3c d3 e2 df bb 87 bf d4 bc
       0.0046350127 0.017618032 -0.0068324595 -0.025970234
000110 50 9a 82 3b 9f 7c 10 3c 68 bd 7f 3a 5d 9b d9 bb
       0.0039856806 0.0088187745 0.0009755702 -0.006640835
000120 34 67 2c 3a e7 29 3c bc 55 d9 b1 bc 3d ea 14 3c
       0.0006576658 -0.0114846 -0.021710077 0.00908905
000130 8d cf 9e 3b 20 b0 5a bb 78 bb 44 bb f3 35 ba bc
       0.0048465193 -0.003336914 -0.0030018967 -0.022730803
000140 9c 55 9a bb 05 ef cd bb 40 9d f4 bb 80 3d c3 39
       -0.0047099125 -0.006284597 -0.0074650347 0.0003723912
000150 32 ee a8 bb af 23 3c 3c e6 13 93 3c 3e ce 5e bc
       -0.005155348 0.011483117 0.017953824 -0.013598977
000160 d4 28 f1 bb 08 89 0d 3c 72 13 ab 3b 85 e2 79 3c
       -0.0073596034 0.008638628 0.005220824 0.01525176
000170 d0 af ed ba 89 73 b8 3c e6 0a d8 3b 6f 1f b6 3c
       -0.0018134061 0.022516029 0.006593096 0.022231786
000180 68 81 a9 bc 36 82 2b 3c e8 73 07 3c c1 a5 02 bd
       -0.020691589 0.010468056 0.00826738 -0.031896356
000190 45 2a 94 3b db 04 85 bc 9d d8 b3 bc fa e5 51 bb
       0.0045216405 -0.016237667 -0.021953875 -0.0032027946
0001a0 19 b6 4e bb e2 df 95 ba 16 74 72 bb cc fd 3d bb
       -0.0031541644 -0.001143452 -0.0036995462 -0.0028990386
0001b0 95 7c c0 3b 62 09 0c bb c6 5a 65 bc 4c 33 ba ba
       0.0058742263 -0.0021367897 -0.013998693 -0.0014205961
0001c0 84 62 8a bc 1f 80 35 3c 91 2f 0b bd 1b a0 0f bc
       -0.016892679 0.01107791 -0.03398091 -0.008766199
0001d0 34 a4 88 3c 09 c7 38 bb d7 f1 2e 3c d0 c6 00 3c
       0.01667986 -0.0028194806 0.010677776 0.007859901
0001e0 64 2d d2 39 13 14 3c 3c a8 72 9c bc 2e 87 d2 bc
       0.0004008814 0.011479395 -0.019097641 -0.025699224
0001f0 4c 49 19 3a e1 f4 a0 3c 4e 60 31 bc 88 ce 4d 3b
       0.0005847409 0.019648017 -0.0108261835 0.003140362
000200 0c 24 b7 bc c0 c1 c1 3b 61 c3 00 3c 48 5e 88 ba
       -0.022356056 0.0059129894 0.007859082 -0.0010404075
000210 39 a1 16 bc 1d c0 bf bb bc c5 fa 3b ed bf 9f 3b
       -0.009193712 -0.005851759 0.0076529663 0.0048751743
000220 e3 9f 52 3b f6 5e e2 bb be 90 84 3a fd 78 00 bc
       0.0032138757 -0.006908293 0.0010113937 -0.007841346
000230 e9 19 14 bb 08 4e 07 3b 98 fd 6c bb f7 ef 7b bc
       -0.0022598451 0.0020645875 -0.0036161896 -0.015377036
000240 44 e2 3d 3a 5a 00 99 bc 00 34 06 bc 05 78 ad bc
       0.0007243494 -0.018676925 -0.008191109 -0.021175394
000250 ed b8 a0 3b 18 81 fa 3c 14 4e 64 bc 05 b8 93 ba
       0.0049048574 0.030579135 -0.013934631 -0.0011270052
000260 05 d1 5c 3c 7a 8f 4a 3b 60 63 2e 3b 52 5f 28 3c
       0.0134775685 0.0030908273 0.0026609525 0.010276632
000270 cc f1 b2 3a b3 70 8f 3b 68 d5 57 bc f2 42 d5 ba
       0.0013652383 0.0043774485 -0.013173439 -0.0016270562
000280 ee 7e 03 3c ae a3 89 bc 3d 96 d7 bb 8c 98 8c 3c
       0.008025868 -0.016801681 -0.006579189 0.017162584
000290 c3 28 6a 3c bf 3d eb 3b ea 3d af bc 29 1d 25 bb
       0.014291945 0.0071789916 -0.021391828 -0.0025194383
0002a0 df f1 77 3b 49 b5 bf 3c 20 2d 8f 3b 7f 2c 09 bb
       0.0037833375 0.023401873 0.004369393 -0.0020931063
0002b0 29 2b c4 3b af 17 ba bb 9c 3c c1 bb 6d 48 99 bb
       0.0059865904 -0.005679093 -0.005897118 -0.0046778233
0002c0 30 ad a8 b8 40 93 b7 ba c8 8b 67 3c 9e 55 83 bc
       -8.043123e-05 -0.0014005676 0.014132448 -0.016032036
0002d0 71 b1 13 3b fc 79 b0 bc 37 9a 5d 3c 12 48 98 3c
       0.0022536183 -0.021542542 0.013525537 0.018589053
0002e0 08 90 d8 bb a7 85 98 3c 62 1a 59 bb 22 03 38 bb
       -0.0066089667 0.018618418 -0.0033127298 -0.002807804
0002f0 b1 d0 87 bb 74 29 93 3b 71 dd a4 3c 14 40 ff 3b
       -0.004144751 0.0044910256 0.020125123 0.007789621
000300 ba 39 5e 3c 04 5c 58 bc 32 16 d1 bb 2f 6e 04 3c
       0.013563568 -0.013205532 -0.0063808197 0.00808291
000310 51 f4 0b 3b 1a a4 83 bb f5 b1 38 3c 1c e0 ac bc
       0.002135534 -0.004017365 0.011272897 -0.021102957
000320 1f 31 9d bc fe 3b 68 3b 41 61 0a bc 0e 8f b4 3c
       -0.019188462 0.0035436149 -0.008446039 0.02204087
000330 03 0e 45 bc fb 3e e1 3c 96 2e 05 3c 03 34 41 3c
       -0.012027266 0.027495852 0.008128783 0.011792186
000340 34 96 01 b9 b3 3b e8 3b 24 55 e5 bb 64 23 7f bb
       -0.00012358354 0.007087195 -0.006998675 -0.0038931007
000350 5d 6d ff 3b bf cb 8f 3c f2 f3 50 bc c4 38 fe 3a
       0.0077950195 0.017553208 -0.012753474 0.001939558
000360 c4 3a 71 bb 1d 63 43 bb 71 d6 eb 3a 5c f6 81 3a
       -0.0036808709 -0.0029813715 0.0017992986 0.000991534
000370 68 68 fe 3b bf 0e 10 bc 1d 48 55 3b f1 5e c4 bc
       0.007763911 -0.008792578 0.0032544204 -0.023971053
000380 07 c2 a3 3c 1a 13 15 bd 08 a2 0b ba 2b 11 c3 bb
       0.01998998 -0.03639517 -0.0005326574 -0.0059529743
000390 0a 7b 50 3c b0 2a b7 bc aa e8 21 bb 1f 24 cd bc
       0.012724647 -0.022359222 -0.002470533 -0.025041638
0003a0 7c a8 46 bb 58 e3 b2 3b 0c 32 9f bc f2 71 b8 3c
       -0.0030312827 0.0054592304 -0.019433044 0.02251527
0003b0 1d ff 48 3c 3a 06 50 bb 9b 50 42 3b 36 18 f8 3b
       0.012267855 -0.0031741993 0.0029650095 0.0075712455
0003c0 13 55 b6 3b 3c 26 a8 3b 1e 8e 74 bc 42 4f df bb
       0.005564341 0.005131511 -0.0149264615 -0.006814868
0003d0 9a a2 b1 3b c6 3b 93 bc b6 fd 9b bb 0e a4 8c bb
       0.005420995 -0.017972838 -0.0047604693 -0.004292018
0003e0 3b 7f 22 3c e6 29 d8 bb d4 c8 f5 3b 86 a1 53 3c
       0.009918029 -0.0065967916 0.007500747 0.012916928
0003f0 cc bd 48 ba ef 87 0d bb 7c a7 ab bc 40 52 6a ba
       -0.00076576765 -0.0021595915 -0.020953886 -0.0008938648

blinear2.weight_rho f4 [32, 32]
000000 41 ae 51 c0 db 90 79 c0 d3 69 77 c0 83 e6 52 c0
       -3.2762606 -3.8994663 -3.865834 -3.2953193
000010 a4 f8 41 c0 9a 3b 46 c0 d3 87 70 c0 e9 7d 52 c0
       -3.0308008 -3.0973878 -3.75829 -3.288935
000020 fd 8b 4b c0 44 2f 3e c0 f2 ff 4f c0 9c f1 4b c0
       -3.1804192 -2.9716349 -3.2499967 -3.1866217
000030 f8 d9 46 c0 14 1b 4d c0 37 89 3b c0 a3 fa 3f c0
       -3.1070538 -3.2047777 -2.93025 -2.9996727
000040 e8 53 40 c0 cc 5d 30 c0 55 bc 33 c0 51 4d 6d c0
       -3.0051212 -2.755725 -2.8083699 -3.707844
000050 c8 73 76 c0 c2 f7 2e c0 7a 10 4a c0 38 e7 76 c0
       -3.8508167 -2.733872 -3.1572556 -3.8578625
000060 1d 72 68 c0 54 a0 35 c0 eb 60 32 c0 aa b1 40 c0
       -3.631965 -2.8379107 -2.7871654 -3.0108438
000070 b5 e2 50 c0 48 53 6e c0 d3 02 51 c0 77 0d 62 c0
       -3.263837 -3.723833 -3.2657974 -3.5320718
000080 c6 e1 47 c0 e7 51 2a c0 cd 15 5d c0 1c 42 47 c0
       -3.123155 -2.661249 -3.4544556 -3.11341
000090 24 d1 2c c0 7a fc 43 c0 fd 95 53 c0 da 31 37 c0
       -2.700265 -3.062285 -3.3060296 -2.8624177
0000a0 4a fe 47 c0 84 e7 41 c0 99 91 3e c0 b7 74 4e c0
       -3.1248956 -3.0297556 -2.9776366 -3.2258737
0000b0 0f 5a 4c c0 f9 9b 67 c0 ce ef 42 c0 5f a6 53 c0
       -3.1929967 -3.6188948 -3.0458865 -3.3070295
0000c0 87 93 68 c0 b9 11 3d c0 3e 1b 82 c0 90 8d 2d c0
       -3.6340044 -2.9542067 -4.0658255 -2.7117653
0000d0 3f 3f 54 c0 cc 94 52 c0 52 ec 72 c0 89 e5 52 c0
       -3.3163602 -3.2903318 -3.7956738 -3.2952597
0000e0 ec e5 69 c0 d3 8a 4d c0 30 84 49 c0 d6 d6 35 c0
       -3.6546583 -3.2115982 -3.148693 -2.8412375
0000f0 62 fb 57 c0 b4 8a 3f c0 f9 bc 36 c0 cb c5 82 c0
       -3.3747182 -2.9928408 -2.855284 -4.0866446
000100 8c f4 77 c0 c4 85 4a c0 36 ff 4f c0 87 e7 35 c0
       -3.874301 -3.1644144 -3.2499518 -2.8422563
000110 4d 64 48 c0 41 e0 4c c0 e2 f7 36 c0 6a 0c 32 c0
       -3.1311219 -3.2011874 -2.8588796 -2.7820077
000120 b7 3a 4e c0 af 8d 43 c0 0e 04 34 c0 7a 04 4f c0
       -3.2223337 -3.0555227 -2.8127475 -3.2346482
000130 db e2 36 c0 16 50 5f c0 a6 58 47 c0 22 89 49 c0
       -2.8575962 -3.489263 -3.1147857 -3.148995
000140 b0 33 4a c0 3f e8 58 c0 c1 3f 51 c0 ee 58 77 c0
       -3.1594048 -3.3891752 -3.2695162 -3.8648028
000150 bd db 53 c0 5a 22 83 c0 56 fa 60 c0 0e 4d 60 c0
       -3.3102868 -4.0979433 -3.5152793 -3.504703
000160 b5 21 5c c0 74 2f 35 c0 c4 4d 38 c0 fe 96 20 c0
       -3.4395573 -2.8310213 -2.8797464 -2.5092158
000170 0b 77 52 c0 22 14 33 c0 e6 5f 47 c0 a6 62 4b c0
       -3.2885158 -2.7981038 -3.1152282 -3.177896
000180 1d c9 4d c0 6a 2b 66 c0 04 f2 31 c0 75 c9 41 c0
       -3.2154 -3.5963998 -2.7803965 -3.027921
000190 46 a7 49 c0 a9 08 5b c0 2b 3c 6f c0 c6 9f 54 c0
       -3.1508346 -3.4224036 -3.7380474 -3.3222518
0001a0 4a 4c 3e c0 71 39 52 c0 b5 46 4a c0 be 76 56 c0
       -2.9734063 -3.284756 -3.1605656 -3.3509974
0001b0 b6 53 52 c0 62 f9 5e c0 77 bf 5d c0 07 4e 43 c0
       -3.2863593 -3.483971 -3.464811 -3.0516374
0001c0 da 8e 33 c0 b0 18 87 c0 95 ef 3f c0 85 ab 54 c0
       -2.805594 -4.2217636 -2.998998 -3.3229687
0001d0 f2 59 5c c0 85 45 5a c0 9f 59 55 c0 16 df 49 c0
       -3.4429898 -3.4104931 -3.333595 -3.154241
0001e0 6e f7 55 c0 31 69 44 c0 b1 20 39 c0 90 b5 25 c0
       -3.343227 -3.0689204 -2.8926203 -2.5892067
0001f0 bf 1f 31 c0 a8 25 48 c0 fe 0f 59 c0 5d 39 50 c0
       -2.7675626 -3.1272984 -3.391601 -3.2535012
000200 df 12 1e c0 77 c7 4f c0 43 67 58 c0 6c 28 54 c0
       -2.4699018 -3.2465494 -3.3813026 -3.3149672
000210 41 6b 56 c0 dc 04 1a c0 9d 76 68 c0 a0 c7 49 c0
       -3.3502963 -2.4065466 -3.6322396 -3.1528091
000220 81 1d 4a c0 00 13 59 c0 ee 81 45 c0 f8 56 4b c0
       -3.1580508 -3.3917847 -3.0860553 -3.1771832
000230 91 b2 8a c0 ce 5b 4e c0 08 60 36 c0 0e 9e 35 c0
       -4.3342977 -3.2243533 -2.8496113 -2.837772
000240 fc 36 4f c0 08 17 4d c0 b0 36 45 c0 66 6f 4a c0
       -3.237731 -3.2045307 -3.0814629 -3.1630492
000250 fb 55 45 c0 d3 16 37 c0 b6 a0 54 c0 1b ed 59 c0
       -3.0833728 -2.860768 -3.322309 -3.4050968
000260 59 e9 32 c0 0b f5 67 c0 69 f3 4d c0 05 2c 53 c0
       -2.7954924 -3.6243312 -3.2179816 -3.2995617
000270 02 44 51 c0 98 a0 4a c0 07 c0 46 c0 f4 c7 4b c0
       -3.2697759 -3.1660519 -3.1054704 -3.1840792
000280 9d cf 38 c0 cb 18 55 c0 e9 17 3e c0 d4 9e 67 c0
       -2.8876717 -3.3296382 -2.9702094 -3.619069
000290 3c 1f 3c c0 f9 d3 77 c0 3a 44 63 c0 df 69 56 c0
       -2.9394064 -3.8723128 -3.5510392 -3.3502119
0002a0 3b 37 5a c0 f4 eb 33 c0 2e ae 52 c0 03 a9 51 c0
       -3.409621 -2.8112764 -3.291881 -3.2759407
0002b0 b1 12 59 c0 82 22 82 c0 26 e3 56 c0 0e e9 36 c0
       -3.3917658 -4.0667124 -3.357614 -2.8579745
0002c0 8b a1 63 c0 7d df 55 c0 96 49 61 c0 8e 90 3a c0
       -3.5567348 -3.3417656 -3.5201163 -2.915073
0002d0 7e f5 3d c0 0d ab 46 c0 77 cc 4f c0 ac 90 6f c0
       -2.9681087 -3.10419 -3.2468545 -3.743205
0002e0 eb 39 2e c0 c6 50 68 c0 40 b4 52 c0 dd af 31 c0
       -2.722285 -3.62993 -3.2922516 -2.7763588
0002f0 59 84 47 c0 e8 a0 47 c0 03 24 47 c0 8a c2 5f c0
       -3.1174529 -3.119196 -3.111573 -3.4962487
000300 9d bc 4f c0 ed ac 46 c0 6f 3b 25 c0 ad 5c 42 c0
       -3.245887 -3.1043046 -2.5817525 -3.0369065
000310 3f d1 3f c0 a6 9f 5f c0 9f 40 46 c0 ed a7 39 c0
       -2.9971464 -3.4941192 -3.0976942 -2.9008744
000320 ab 5e 59 c0 de 8d 5d c0 79 36 76 c0 1b a8 5a c0
       -3.396403 -3.461784 -3.8470747 -3.4165103
000330 63 08 49 c0 4c c3 34 c0 92 02 6f c0 c4 34 4c c0
       -3.141137 -2.82442 -3.7345319 -3.1907206
000340 cf d9 51 c0 5e 4b 5e c0 f0 89 33 c0 e1 c9 2e c0
       -3.278919 -3.47335 -2.805294 -2.7310717
000350 46 42 39 c0 09 87 54 c0 fa 18 3b c0 b0 92 42 c0
       -2.89467 -3.320742 -2.9233994 -3.040203
000360 07 5a 32 c0 5c 5e 3b c0 e4 5b 56 c0 04 61 6b c0
       -2.7867448 -2.9276342 -3.3493586 -3.6777964
000370 7d 81 7e c0 b5 76 6e c0 7e 98 38 c0 4e a5 41 c0
       -3.9766533 -3.7259953 -2.8843074 -3.0257144
000380 dc 33 49 c0 76 a3 29 c0 28 8b 4d c0 cc ae 70 c0
       -3.1437902 -2.6506019 -3.2116184 -3.7606688
000390 9f 3f 43 c0 57 51 4f c0 6c 52 42 c0 ba bb 5f c0
       -3.0507581 -3.2393396 -3.0362806 -3.495833
0003a0 c3 9d 50 c0 24 1e 77 c0 c1 8a 60 c0 8e 9d 40 c0
       -3.259629 -3.8612146 -3.5084689 -3.0096164
0003b0 40 26 63 c0 d2 91 29 c0 40 2f 4f c0 6c d7 45 c0
       -3.5492096 -2.6495252 -3.237259 -3.0912733
0003c0 a7 6a 39 c0 24 5e 46 c0 d2 18 3d c0 72 a1 59 c0
       -2.8971345 -3.099496 -2.95464 -3.4004788
0003d0 89 8b 4e c0 9e b8 57 c0 ca e3 40 c0 cf 82 52 c0
       -3.2272666 -3.3706431 -3.0139031 -3.289234
0003e0 d0 5d 51 c0 bd 3b 53 c0 2e f8 5d c0 2b c5 58 c0
       -3.2713509 -3.3005211 -3.4682727 -3.3870342
0003f0 47 04 50 c0 a6 43 49 c0 29 45 33 c0 1d ea 4b c0
       -3.250261 -3.144754 -2.8010962 -3.1861641

blinear2.bias_mu f4 [32]
000000 bd f5 ad 3b d1 a3 7c bc ec a5 02 3c ce 99 58 bc
       0.0053088353 -0.015419916 0.007974129 -0.013220264
000010 de 32 2b bc e6 59 84 bb d4 27 9a 3b 2b 76 b8 3c
       -0.010449139 -0.004039037 0.004704455 0.022517284
000020 65 fe c6 3a 1b 36 c2 bc 81 70 61 bc 1f 07 d0 3d
       0.0015182017 -0.02370744 -0.013759733 0.10157608
000030 76 ba 1a 3c 06 68 ae bc ea 6f b6 3c 9e 68 40 3d
       0.00944387 -0.021289837 0.022270162 0.04697477
000040 76 eb bf 3b be a7 b5 39 60 72 0a 3b 28 7a 82 3c
       0.0058569266 0.00034647988 0.0021125302 0.01592739
000050 f2 00 95 ba e1 b2 29 3e 92 7f 00 3b ba 40 f5 3a
       -0.001136808 0.16572143 0.0019607288 0.0018711307
000060 b0 98 b3 3a d6 14 1f bc ee d8 74 3c 20 08 34 39
       0.0013702121 -0.0097095575 0.014944298 0.00017169164
000070 47 84 b7 3c 23 1f a6 bb 06 7e bf 3b 91 88 05 3e
       0.022401942 -0.0050696298 0.0058438806 0.13040377

blinear2.bias_rho f4 [32]
000000 90 64 59 c0 70 d0 5a c0 7d a0 54 c0 35 64 3c c0
       -3.3967628 -3.418972 -3.3222954 -2.9436162
000010 64 dc 54 c0 ae 88 6a c0 1c 2c 54 c0 04 25 5e c0
       -3.3259516 -3.6645923 -3.3151922 -3.4710093
000020 b1 31 45 c0 17 63 51 c0 75 f5 5d c0 fa 55 62 c0
       -3.081158 -3.271673 -3.4681065 -3.5364976
000030 8f 99 59 c0 7f c7 4b c0 1a a3 3b c0 e0 ab 48 c0
       -3.3999975 -3.1840513 -2.93183 -3.1354904
000040 fa c4 53 c0 b3 fb 4d c0 dc b3 58 c0 28 8f 4d c0
       -3.3088975 -3.2184875 -3.3859777 -3.2118626
000050 8c 3e 3f c0 32 bf 73 c0 8c 8d 31 c0 3a 92 5d c0
       -2.9881926 -3.8085446 -2.7742643 -3.46205
000060 b7 e3 41 c0 7a 99 47 c0 8c f2 56 c0 95 42 55 c0
       -3.0295236 -3.1187425 -3.358554 -3.3321888
000070 71 e8 55 c0 1f 5a 24 c0 03 6c 6f c0 93 23 4b c0
       -3.342312 -2.5680006 -3.7409675 -3.1740463

blinear2.weight_sampler.mu f4 [32, 32]
000000 99 11 9f bc 88 ce 3f bc 95 0a ef bb 2a 9b 54 3c
       -0.01941757 -0.011706956 -0.0072949626 0.012976447
000010 e1 31 1e 3c 2d 2e a1 ba 29 d8 0e 3c bc 9d 00 3c
       0.009655447 -0.0012297087 0.008718529 0.007850107
000020 98 e5 ea b9 a4 82 50 3c ab f6 84 bc 78 11 85 bb
       -0.0004480302 0.01272646 -0.016230902 -0.0040609203
000030 e8 dc 32 3b e3 7f c1 3b b6 21 3d bc f6 b1 4d bb
       0.0027292315 0.005905138 -0.011543682 -0.003138659
000040 18 8a c1 3b 76 ec 0a bc 40 ba c3 3b b3 17 17 bc
       0.0059063546 -0.008479228 0.0059731305 -0.009221959
000050 08 d9 2a 3a 70 93 7e bc 1f 41 20 bc 3e 3a bd 3c
       0.00065173255 -0.0155380815 -0.009781151 0.023099061
000060 80 d3 a8 bb 38 c6 88 3b 4c 37 04 bc ae 34 8c bc
       -0.005152166 0.00417402 -0.008069824 -0.017114963
000070 c0 7f 39 bb fc b4 f8 bb 9b 8b bf 3b c5 ac f6 bc
       -0.0028304905 -0.0075899344 0.0058454997 -0.03011168
000080 90 ee ef 3c 6f 13 9f bc 7c 29 9f 3a 38 c0 64 b9
       0.02928856 -0.019418446 0.0012143101 -0.00021815381
000090 8c 93 c0 3b 05 41 05 bb d0 21 72 3a 0e 59 39 3c
       0.005876964 -0.0020332944 0.0009236606 0.011312736
0000a0 47 01 99 3c 2a d7 10 bc e2 df a7 3c 78 58 ac bc
       0.018677367 -0.008840362 0.020492498 -0.021038279
0000b0 02 0e 61 bb 52 f7 66 bc 94 a6 b0 3b 6c 8a 71 39
       -0.0034340625 -0.014097052 0.0053909514 0.00023035117
0000c0 1c bb 9a bb fd f9 b5 bc 1e a0 18 bc 6d 1e 5f 3c
       -0.004722012 -0.02221393 -0.009315519 0.013618094
0000d0 af 8e 96 bc d7 19 60 3b 33 f0 00 bd fc 2d 17 bc
       -0.018378584 0.003419509 -0.03147907 -0.009227272
0000e0 75 fa 14 3b c4 9c 61 bb 8c 25 54 bc a1 8e e2 bc
       0.0022732292 -0.0034425715 -0.012948405 -0.027655901
0000f0 c0 be 06 b9 b9 c1 0b bd ab 65 9f 3c a2 1f 6d bb
       -0.00012850296 -0.034120295 0.019457659 -0.0036182185
000100 4e e1 97 3b b1 53 90 3c d3 e2 df bb 87 bf d4 bc
       0.0046350127 0.017618032 -0.0068324595 -0.025970234
000110 50 9a 82 3b 9f 7c 10 3c 68 bd 7f 3a 5d 9b d9 bb
       0.0039856806 0.0088187745 0.0009755702 -0.006640835
000120 34 67 2c 3a e7 29 3c bc 55 d9 b1 bc 3d ea 14 3c
       0.0006576658 -0.0114846 -0.021710077 0.00908905
000130 8d cf 9e 3b 20 b0 5a bb 78 bb 44 bb f3 35 ba bc
       0.0048465193 -0.003336914 -0.0030018967 -0.022730803
000140 9c 55 9a bb 05 ef cd bb 40 9d f4 bb 80 3d c3 39
       -0.0047099125 -0.006284597 -0.0074650347 0.0003723912
000150 32 ee a8 bb af 23 3c 3c e6 13 93 3c 3e ce 5e bc
       -0.005155348 0.011483117 0.017953824 -0.013598977
000160 d4 28 f1 bb 08 89 0d 3c 72 13 ab 3b 85 e2 79 3c
       -0.0073596034 0.008638628 0.005220824 0.01525176
000170 d0 af ed ba 89 73 b8 3c e6 0a d8 3b 6f 1f b6 3c
       -0.0018134061 0.022516029 0.006593096 0.022231786
000180 68 81 a9 bc 36 82 2b 3c e8 73 07 3c c1 a5 02 bd
       -0.020691589 0.010468056 0.00826738 -0.031896356
000190 45 2a 94 3b db 04 85 bc 9d d8 b3 bc fa e5 51 bb
       0.0045216405 -0.016237667 -0.021953875 -0.0032027946
0001a0 19 b6 4e bb e2 df 95 ba 16 74 72 bb cc fd 3d bb
       -0.0031541644 -0.001143452 -0.0036995462 -0.0028990386
0001b0 95 7c c0 3b 62 09 0c bb c6 5a 65 bc 4c 33 ba ba
       0.0058742263 -0.0021367897 -0.013998693 -0.0014205961
0001c0 84 62 8a bc 1f 80 35 3c 91 2f 0b bd 1b a0 0f bc
       -0.016892679 0.01107791 -0.03398091 -0.008766199
0001d0 34 a4 88 3c 09 c7 38 bb d7 f1 2e 3c d0 c6 00 3c
       0.01667986 -0.0028194806 0.010677776 0.007859901
0001e0 64 2d d2 39 13 14 3c 3c a8 72 9c bc 2e 87 d2 bc
       0.0004008814 0.011479395 -0.019097641 -0.025699224
0001f0 4c 49 19 3a e1 f4 a0 3c 4e 60 31 bc 88 ce 4d 3b
       0.0005847409 0.019648017 -0.0108261835 0.003140362
000200 0c 24 b7 bc c0 c1 c1 3b 61 c3 00 3c 48 5e 88 ba
       -0.022356056 0.0059129894 0.007859082 -0.0010404075
000210 39 a1 16 bc 1d c0 bf bb bc c5 fa 3b ed bf 9f 3b
       -0.009193712 -0.005851759 0.0076529663 0.0048751743
000220 e3 9f 52 3b f6 5e e2 bb be 90 84 3a fd 78 00 bc
       0.0032138757 -0.006908293 0.0010113937 -0.007841346
000230 e9 19 14 bb 08 4e 07 3b 98 fd 6c bb f7 ef 7b bc
       -0.0022598451 0.0020645875 -0.0036161896 -0.015377036
000240 44 e2 3d 3a 5a 00 99 bc 00 34 06 bc 05 78 ad bc
       0.0007243494 -0.018676925 -0.008191109 -0.021175394
000250 ed b8 a0 3b 18 81 fa 3c 14 4e 64 bc 05 b8 93 ba
       0.0049048574 0.030579135 -0.013934631 -0.0011270052
000260 05 d1 5c 3c 7a 8f 4a 3b 60 63 2e 3b 52 5f 28 3c
       0.0134775685 0.0030908273 0.0026609525 0.010276632
000270 cc f1 b2 3a b3 70 8f 3b 68 d5 57 bc f2 42 d5 ba
       0.0013652383 0.0043774485 -0.013173439 -0.0016270562
000280 ee 7e 03 3c ae a3 89 bc 3d 96 d7 bb 8c 98 8c 3c
       0.008025868 -0.016801681 -0.006579189 0.017162584
000290 c3 28 6a 3c bf 3d eb 3b ea 3d af bc 29 1d 25 bb
       0.014291945 0.0071789916 -0.021391828 -0.0025194383
0002a0 df f1 77 3b 49 b5 bf 3c 20 2d 8f 3b 7f 2c 09 bb
       0.0037833375 0.023401873 0.004369393 -0.0020931063
0002b0 29 2b c4 3b af 17 ba bb 9c 3c c1 bb 6d 48 99 bb
       0.0059865904 -0.005679093 -0.005897118 -0.0046778233
0002c0 30 ad a8 b8 40 93 b7 ba c8 8b 67 3c 9e 55 83 bc
       -8.043123e-05 -0.0014005676 0.014132448 -0.016032036
0002d0 71 b1 13 3b fc 79 b0 bc 37 9a 5d 3c 12 48 98 3c
       0.0022536183 -0.021542542 0.013525537 0.018589053
0002e0 08 90 d8 bb a7 85 98 3c 62 1a 59 bb 22 03 38 bb
       -0.0066089667 0.018618418 -0.0033127298 -0.002807804
0002f0 b1 d0 87 bb 74 29 93 3b 71 dd a4 3c 14 40 ff 3b
       -0.004144751 0.0044910256 0.020125123 0.007789621
000300 ba 39 5e 3c 04 5c 58 bc 32 16 d1 bb 2f 6e 04 3c
       0.013563568 -0.013205532 -0.0063808197 0.00808291
000310 51 f4 0b 3b 1a a4 83 bb f5 b1 38 3c 1c e0 ac bc
       0.002135534 -0.004017365 0.011272897 -0.021102957
000320 1f 31 9d bc fe 3b 68 3b 41 61 0a bc 0e 8f b4 3c
       -0.019188462 0.0035436149 -0.008446039 0.02204087
000330 03 0e 45 bc fb 3e e1 3c 96 2e 05 3c 03 34 41 3c
       -0.012027266 0.027495852 0.008128783 0.011792186
000340 34 96 01 b9 b3 3b e8 3b 24 55 e5 bb 64 23 7f bb
       -0.00012358354 0.007087195 -0.006998675 -0.0038931007
000350 5d 6d ff 3b bf cb 8f 3c f2 f3 50 bc c4 38 fe 3a
       0.0077950195 0.017553208 -0.012753474 0.001939558
000360 c4 3a 71 bb 1d 63 43 bb 71 d6 eb 3a 5c f6 81 3a
       -0.0036808709 -0.0029813715 0.0017992986 0.000991534
000370 68 68 fe 3b bf 0e 10 bc 1d 48 55 3b f1 5e c4 bc
       0.007763911 -0.008792578 0.0032544204 -0.023971053
000380 07 c2 a3 3c 1a 13 15 bd 08 a2 0b ba 2b 11 c3 bb
       0.01998998 -0.03639517 -0.0005326574 -0.0059529743
000390 0a 7b 50 3c b0 2a b7 bc aa e8 21 bb 1f 24 cd bc
       0.012724647 -0.022359222 -0.002470533 -0.025041638
0003a0 7c a8 46 bb 58 e3 b2 3b 0c 32 9f bc f2 71 b8 3c
       -0.0030312827 0.0054592304 -0.019433044 0.02251527
0003b0 1d ff 48 3c 3a 06 50 bb 9b 50 42 3b 36 18 f8 3b
       0.012267855 -0.0031741993 0.0029650095 0.0075712455
0003c0 13 55 b6 3b 3c 26 a8 3b 1e 8e 74 bc 42 4f df bb
       0.005564341 0.005131511 -0.0149264615 -0.006814868
0003d0 9a a2 b1 3b c6 3b 93 bc b6 fd 9b bb 0e a4 8c bb
       0.005420995 -0.017972838 -0.0047604693 -0.004292018
0003e0 3b 7f 22 3c e6 29 d8 bb d4 c8 f5 3b 86 a1 53 3c
       0.009918029 -0.0065967916 0.007500747 0.012916928
0003f0 cc bd 48 ba ef 87 0d bb 7c a7 ab bc 40 52 6a ba
       -0.00076576765 -0.0021595915 -0.020953886 -0.0008938648

blinear2.weight_sampler.rho f4 [32, 32]
000000 41 ae 51 c0 db 90 79 c0 d3 69 77 c0 83 e6 52 c0
       -3.2762606 -3.8994663 -3.865834 -3.2953193
000010 a4 f8 41 c0 9a 3b 46 c0 d3 87 70 c0 e9 7d 52 c0
       -3.0308008 -3.0973878 -3.75829 -3.288935
000020 fd 8b 4b c0 44 2f 3e c0 f2 ff 4f c0 9c f1 4b c0
       -3.1804192 -2.9716349 -3.2499967 -3.1866217
000030 f8 d9 46 c0 14 1b 4d c0 37 89 3b c0 a3 fa 3f c0
       -3.1070538 -3.2047777 -2.93025 -2.9996727
000040 e8 53 40 c0 cc 5d 30 c0 55 bc 33 c0 51 4d 6d c0
       -3.0051212 -2.755725 -2.8083699 -3.707844
000050 c8 73 76 c0 c2 f7 2e c0 7a 10 4a c0 38 e7 76 c0
       -3.8508167 -2.733872 -3.1572556 -3.8578625
000060 1d 72 68 c0 54 a0 35 c0 eb 60 32 c0 aa b1 40 c0
       -3.631965 -2.8379107 -2.7871654 -3.0108438
000070 b5 e2 50 c0 48 53 6e c0 d3 02 51 c0 77 0d 62 c0
       -3.263837 -3.723833 -3.2657974 -3.5320718
000080 c6 e1 47 c0 e7 51 2a c0 cd 15 5d c0 1c 42 47 c0
       -3.123155 -2.661249 -3.4544556 -3.11341
000090 24 d1 2c c0 7a fc 43 c0 fd 95 53 c0 da 31 37 c0
       -2.700265 -3.062285 -3.3060296 -2.8624177
0000a0 4a fe 47 c0 84 e7 41 c0 99 91 3e c0 b7 74 4e c0
       -3.1248956 -3.0297556 -2.9776366 -3.2258737
0000b0 0f 5a 4c c0 f9 9b 67 c0 ce ef 42 c0 5f a6 53 c0
       -3.1929967 -3.6188948 -3.0458865 -3.3070295
0000c0 87 93 68 c0 b9 11 3d c0 3e 1b 82 c0 90 8d 2d c0
       -3.6340044 -2.9542067 -4.0658255 -2.7117653
0000d0 3f 3f 54 c0 cc 94 52 c0 52 ec 72 c0 89 e5 52 c0
       -3.3163602 -3.2903318 -3.7956738 -3.2952597
0000e0 ec e5 69 c0 d3 8a 4d c0 30 84 49 c0 d6 d6 35 c0
       -3.6546583 -3.2115982 -3.148693 -2.8412375
0000f0 62 fb 57 c0 b4 8a 3f c0 f9 bc 36 c0 cb c5 82 c0
       -3.3747182 -2.9928408 -2.855284 -4.0866446
000100 8c f4 77 c0 c4 85 4a c0 36 ff 4f c0 87 e7 35 c0
       -3.874301 -3.1644144 -3.2499518 -2.8422563
000110 4d 64 48 c0 41 e0 4c c0 e2 f7 36 c0 6a 0c 32 c0
       -3.1311219 -3.2011874 -2.8588796 -2.7820077
000120 b7 3a 4e c0 af 8d 43 c0 0e 04 34 c0 7a 04 4f c0
       -3.2223337 -3.0555227 -2.8127475 -3.2346482
000130 db e2 36 c0 16 50 5f c0 a6 58 47 c0 22 89 49 c0
       -2.8575962 -3.489263 -3.1147857 -3.148995
000140 b0 33 4a c0 3f e8 58 c0 c1 3f 51 c0 ee 58 77 c0
       -3.1594048 -3.3891752 -3.2695162 -3.8648028
000150 bd db 53 c0 5a 22 83 c0 56 fa 60 c0 0e 4d 60 c0
       -3.3102868 -4.0979433 -3.5152793 -3.504703
000160 b5 21 5c c0 74 2f 35 c0 c4 4d 38 c0 fe 96 20 c0
       -3.4395573 -2.8310213 -2.8797464 -2.5092158
000170 0b 77 52 c0 22 14 33 c0 e6 5f 47 c0 a6 62 4b c0
       -3.2885158 -2.7981038 -3.1152282 -3.177896
000180 1d c9 4d c0 6a 2b 66 c0 04 f2 31 c0 75 c9 41 c0
       -3.2154 -3.5963998 -2.7803965 -3.027921
000190 46 a7 49 c0 a9 08 5b c0 2b 3c 6f c0 c6 9f 54 c0
       -3.1508346 -3.4224036 -3.7380474 -3.3222518
0001a0 4a 4c 3e c0 71 39 52 c0 b5 46 4a c0 be 76 56 c0
       -2.9734063 -3.284756 -3.1605656 -3.3509974
0001b0 b6 53 52 c0 62 f9 5e c0 77 bf 5d c0 07 4e 43 c0
       -3.2863593 -3.483971 -3.464811 -3.0516374
0001c0 da 8e 33 c0 b0 18 87 c0 95 ef 3f c0 85 ab 54 c0
       -2.805594 -4.2217636 -2.998998 -3.3229687
0001d0 f2 59 5c c0 85 45 5a c0 9f 59 55 c0 16 df 49 c0
       -3.4429898 -3.4104931 -3.333595 -3.154241
0001e0 6e f7 55 c0 31 69 44 c0 b1 20 39 c0 90 b5 25 c0
       -3.343227 -3.0689204 -2.8926203 -2.5892067
0001f0 bf 1f 31 c0 a8 25 48 c0 fe 0f 59 c0 5d 39 50 c0
       -2.7675626 -3.1272984 -3.391601 -3.2535012
000200 df 12 1e c0 77 c7 4f c0 43 67 58 c0 6c 28 54 c0
       -2.4699018 -3.2465494 -3.3813026 -3.3149672
000210 41 6b 56 c0 dc 04 1a c0 9d 76 68 c0 a0 c7 49 c0
       -3.3502963 -2.4065466 -3.6322396 -3.1528091
000220 81 1d 4a c0 00 13 59 c0 ee 81 45 c0 f8 56 4b c0
       -3.1580508 -3.3917847 -3.0860553 -3.1771832
000230 91 b2 8a c0 ce 5b 4e c0 08 60 36 c0 0e 9e 35 c0
       -4.3342977 -3.2243533 -2.8496113 -2.837772
000240 fc 36 4f c0 08 17 4d c0 b0 36 45 c0 66 6f 4a c0
       -3.237731 -3.2045307 -3.0814629 -3.1630492
000250 fb 55 45 c0 d3 16 37 c0 b6 a0 54 c0 1b ed 59 c0
       -3.0833728 -2.860768 -3.322309 -3.4050968
000260 59 e9 32 c0 0b f5 67 c0 69 f3 4d c0 05 2c 53 c0
       -2.7954924 -3.6243312 -3.2179816 -3.2995617
000270 02 44 51 c0 98 a0 4a c0 07 c0 46 c0 f4 c7 4b c0
       -3.2697759 -3.1660519 -3.1054704 -3.1840792
000280 9d cf 38 c0 cb 18 55 c0 e9 17 3e c0 d4 9e 67 c0
       -2.8876717 -3.3296382 -2.9702094 -3.619069
000290 3c 1f 3c c0 f9 d3 77 c0 3a 44 63 c0 df 69 56 c0
       -2.9394064 -3.8723128 -3.5510392 -3.3502119
0002a0 3b 37 5a c0 f4 eb 33 c0 2e ae 52 c0 03 a9 51 c0
       -3.409621 -2.8112764 -3.291881 -3.2759407
0002b0 b1 12 59 c0 82 22 82 c0 26 e3 56 c0 0e e9 36 c0
       -3.3917658 -4.0667124 -3.357614 -2.8579745
0002c0 8b a1 63 c0 7d df 55 c0 96 49 61 c0 8e 90 3a c0
       -3.5567348 -3.3417656 -3.5201163 -2.915073
0002d0 7e f5 3d c0 0d ab 46 c0 77 cc 4f c0 ac 90 6f c0
       -2.9681087 -3.10419 -3.2468545 -3.743205
0002e0 eb 39 2e c0 c6 50 68 c0 40 b4 52 c0 dd af 31 c0
       -2.722285 -3.62993 -3.2922516 -2.7763588
0002f0 59 84 47 c0 e8 a0 47 c0 03 24 47 c0 8a c2 5f c0
       -3.1174529 -3.119196 -3.111573 -3.4962487
000300 9d bc 4f c0 ed ac 46 c0 6f 3b 25 c0 ad 5c 42 c0
       -3.245887 -3.1043046 -2.5817525 -3.0369065
000310 3f d1 3f c0 a6 9f 5f c0 9f 40 46 c0 ed a7 39 c0
       -2.9971464 -3.4941192 -3.0976942 -2.9008744
000320 ab 5e 59 c0 de 8d 5d c0 79 36 76 c0 1b a8 5a c0
       -3.396403 -3.461784 -3.8470747 -3.4165103
000330 63 08 49 c0 4c c3 34 c0 92 02 6f c0 c4 34 4c c0
       -3.141137 -2.82442 -3.7345319 -3.1907206
000340 cf d9 51 c0 5e 4b 5e c0 f0 89 33 c0 e1 c9 2e c0
       -3.278919 -3.47335 -2.805294 -2.7310717
000350 46 42 39 c0 09 87 54 c0 fa 18 3b c0 b0 92 42 c0
       -2.89467 -3.320742 -2.9233994 -3.040203
000360 07 5a 32 c0 5c 5e 3b c0 e4 5b 56 c0 04 61 6b c0
       -2.7867448 -2.9276342 -3.3493586 -3.6777964
000370 7d 81 7e c0 b5 76 6e c0 7e 98 38 c0 4e a5 41 c0
       -3.9766533 -3.7259953 -2.8843074 -3.0257144
000380 dc 33 49 c0 76 a3 29 c0 28 8b 4d c0 cc ae 70 c0
       -3.1437902 -2.6506019 -3.2116184 -3.7606688
000390 9f 3f 43 c0 57 51 4f c0 6c 52 42 c0 ba bb 5f c0
       -3.0507581 -3.2393396 -3.0362806 -3.495833
0003a0 c3 9d 50 c0 24 1e 77 c0 c1 8a 60 c0 8e 9d 40 c0
       -3.259629 -3.8612146 -3.5084689 -3.0096164
0003b0 40 26 63 c0 d2 91 29 c0 40 2f 4f c0 6c d7 45 c0
       -3.5492096 -2.6495252 -3.237259 -3.0912733
0003c0 a7 6a 39 c0 24 5e 46 c0 d2 18 3d c0 72 a1 59 c0
       -2.8971345 -3.099496 -2.95464 -3.4004788
0003d0 89 8b 4e c0 9e b8 57 c0 ca e3 40 c0 cf 82 52 c0
       -3.2272666 -3.3706431 -3.0139031 -3.289234
0003e0 d0 5d 51 c0 bd 3b 53 c0 2e f8 5d c0 2b c5 58 c0
       -3.2713509 -3.3005211 -3.4682727 -3.3870342
0003f0 47 04 50 c0 a6 43 49 c0 29 45 33 c0 1d ea 4b c0
       -3.250261 -3.144754 -2.8010962 -3.1861641

blinear2.weight_sampler.eps_w f4 [32, 32]
000000 9e 4b d1 3f 5a 4d 97 bf fb 8e f6 3e c6 c2 46 bf
       1.6351202 -1.1820481 0.4815596 -0.7764095
000010 a2 77 a3 be 97 90 52 3f 02 63 b9 3f f4 bd 8d 3f
       -0.3192721 0.82251877 1.448334 1.1073594
000020 bf d3 8d be 20 b9 70 3e d2 75 a6 be ec aa 6f bf
       -0.27700612 0.2350812 -0.32511765 -0.9362018
000030 2d 64 ac bf 43 70 c3 bf d1 75 12 bf a1 09 43 3f
       -1.3468071 -1.5268635 -0.57211024 0.7618657
000040 cd 94 93 be 1e 69 32 bf bf f3 d3 be 07 66 1d 3f
       -0.28824463 -0.69691646 -0.413969 0.61483806
000050 24 61 12 bf e5 eb ed bb a0 a1 0b 40 07 92 a9 bf
       -0.57179475 -0.007260787 2.1817398 -1.3247689
000060 f1 67 3a 3e 77 ea 19 3f 7f 4e 65 bf 01 63 2b 40
       0.18203713 0.6012339 -0.895729 2.6779177
000070 3a 91 0d c0 ba 14 ca 3f c3 ed 10 c0 f2 11 9d 3f
       -2.211989 1.5787575 -2.2645118 1.2271101
000080 7d 40 a4 bd c9 a8 a9 3f 6f 8f 1f 3f 1b 21 03 3f
       -0.08020113 1.3254634 0.6232824 0.5122239
000090 1f 82 26 3f 6c d8 ad 3f 07 e1 ee 3f 83 47 64 bf
       0.650423 1.3581672 1.8662423 -0.8917162
0000a0 c7 cf 46 39 0f b4 e2 bf 01 01 cf 3f 55 38 65 3d
       0.00018960155 -1.77112 1.6172181 0.055961926
0000b0 a7 60 49 be 09 93 ea be 0f ae 79 bf 53 2a 0d be
       -0.19665776 -0.45815304 -0.9753122 -0.13785677
0000c0 e7 9c 17 3e 3b 7e 91 be d2 d3 0a bf 1f d4 28 bf
       0.14805947 -0.2841662 -0.5422946 -0.6594867
0000d0 0d 0e 96 bf af 96 65 3f 52 b6 97 3f bf a3 c7 be
       -1.1723038 0.8968305 1.1852515 -0.38992116
0000e0 3f 7a 7f bf a6 a5 c5 3f b4 cb 1a 3f 01 ec 72 3f
       -0.9979591 1.5441177 0.60467076 0.94891363
0000f0 7f 0c f4 be 22 02 2c 3f 50 7b e4 be 86 d8 b9 3f
       -0.47665784 0.67190754 -0.4462533 1.4519203
000100 99 a6 3c 3d 8a 72 d6 3e f4 94 0d c0 fc 55 85 bf
       0.046057317 0.4188426 -2.2122164 -1.0416865
000110 b7 77 13 40 e7 b7 95 bf e4 96 b3 bf 31 ab e5 be
       2.3041818 -1.1696748 -1.4030423 -0.4485717
000120 33 a2 54 3e 93 56 68 3d 8d 9b 8d 3e c7 ee d9 be
       0.20764999 0.05672319 0.27657738 -0.42564985
000130 da 61 0b bf ba e9 ff 3d a3 5c be 3e 3a 5f 35 40
       -0.54446185 0.12495752 0.3718005 2.8339372
000140 5b 93 b3 3d 25 64 7f bf d4 a1 5e be f0 71 38 3f
       0.0876834 -0.99762183 -0.2174142 0.72048855
000150 68 89 58 be 3a 25 aa bf 67 92 bd bf a2 07 7f 3f
       -0.21146166 -1.3292611 -1.4810303 0.9962102
000160 b1 5e de be 71 99 26 bf 90 2c 91 3f dc 7a ff bf
       -0.4343162 -0.65077883 1.1341724 -1.9959369
000170 f6 87 5a be 31 61 a4 bf 47 0d 97 bf f5 b7 d4 bf
       -0.21340927 -1.284216 -1.1800927 -1.6618639
000180 cc bf 89 3e 78 68 ba bf 3d c8 9e 3e c8 5a 43 40
       0.26904142 -1.4563131 0.31012145 3.0524158
000190 33 8e a2 bf d0 2c 6a bf 9e 1f fb bd 1a bb 3a 3e
       -1.2699646 -0.9147463 -0.1226189 0.18235436
0001a0 33 d0 02 bf e5 d9 b6 3e 54 a4 96 bd ec 84 9f 3f
       -0.51098937 0.35713115 -0.07355562 1.246244
0001b0 f9 45 8c 3f 87 2c 99 3e ec 88 4f bf 1a 4d 66 bf
       1.0958854 0.29916784 -0.810683 -0.899614
0001c0 fb fc 97 3f d4 01 a5 be ac f7 bf 3f 35 f3 17 3f
       1.1874079 -0.32227957 1.4997458 0.5935548
0001d0 a7 b6 ff bf fb 4b a3 be bf 54 9c 3f ed 41 89 be
       -1.9977616 -0.31893906 1.2213362 -0.2680811
0001e0 9a 72 a1 3f 57 d8 2c 40 5f 35 c2 3f 3a 41 2f bf
       1.2613099 2.7007043 1.5172538 -0.684589
0001f0 21 f6 60 bf 02 f4 fa bf aa 4f 7b 3f e3 c6 79 3e
       -0.8787556 -1.9605715 0.9816843 0.24392276
000200 5e 08 2b 3f 25 ed 0d 3f c0 74 92 be 76 d9 da be
       0.6680964 0.5543998 -0.28604698 -0.42744035
000210 16 a7 f2 bd 37 bb 96 bf 23 c6 59 bf ef 00 56 bf
       -0.11848275 -1.1775883 -0.8506796 -0.83595175
000220 49 ed 3a 3f f0 08 99 3f 94 e3 01 bf 44 72 c7 3e
       0.7301832 1.1955853 -0.5073788 0.38954365
000230 4a 6d 8b 3f 73 a7 8b 3e 3f b8 12 3f ab ee 6b 3e
       1.0892727 0.2727619 0.5731239 0.23040263
000240 43 12 dd 3c c3 02 de bf 4a c9 70 be 56 e4 85 3f
       0.026986247 -1.7344593 -0.23514286 1.0460308
000250 2f 71 63 be df f2 49 bf ec 3a a0 3f b7 72 9f 3f
       -0.22211145 -0.78886217 1.2517982 1.2456883
000260 93 aa 64 be 04 f0 80 bf 06 22 ed bf 2a d3 00 be
       -0.22330694 -1.0073247 -1.8526008 -0.12580553
000270 4d 7b 8b bf 37 21 99 3f b1 81 b9 bf 5d c8 b9 3f
       -1.0897003 1.1963261 -1.4492704 1.4514271
000280 b9 b1 cb bf bc b5 9b 3f 23 04 83 3e be c7 f9 bf
       -1.5913612 1.2164836 0.25589094 -1.9514081
000290 db 37 5c 3f 20 2c 18 bf 7a e5 f5 bd 5b 2e 89 bf
       0.8602273 -0.5944233 -0.1200666 -1.0717272
0002a0 d3 05 c1 bf ec e3 3b 3f 15 e7 20 3f d6 62 0a bf
       -1.5079902 0.73394656 0.62852603 -0.5405706
0002b0 b1 91 40 bf dd be f6 3d 03 e6 fe 3e 6e db 4b bf
       -0.7522231 0.12048123 0.4978486 -0.796317
0002c0 0e c7 4a 3f f2 28 8a 3f cb af a3 be 79 09 82 be
       0.79209983 1.0793746 -0.31970057 -0.25397852
0002d0 f9 75 09 be 4f e0 f4 3d 6d ec be bf 36 6a 39 bf
       -0.13423909 0.11956846 -1.4915901 -0.7242769
0002e0 e3 f9 79 3f 1d 0e f8 3c 77 32 46 3f 42 3d 6a bf
       0.9764692 0.030280167 0.77420753 -0.9149972
0002f0 96 56 7a 3f 7f 62 c5 3f 03 fd 67 be 53 f7 bb bf
       0.9778837 1.5420684 -0.2265511 -1.4684852
000300 b4 7a 13 be 2b d9 c1 3e 48 9e 1e 40 d7 d8 e7 3f
       -0.14402276 0.37861 2.4784107 1.8113049
000310 7b 2c 7b be cd d6 c8 3c 75 e5 a5 bf 5d e8 c2 3e
       -0.24528687 0.024516487 -1.296065 0.38067904
000320 6a f4 94 be 7e 82 8b 3f a2 ee 5d 3f 01 68 07 3f
       -0.29092723 1.0899198 0.8669225 0.5289307
000330 dd 1d 28 3f 4f 9c 92 3f da 4a f5 bd 0d 7f 23 3e
       0.6567057 1.1453952 -0.119771674 0.15966435
000340 83 7f 81 be 34 bf 62 3e cb ab 97 bf 96 c6 8a bf
       -0.25292596 0.2214325 -1.1849302 -1.0841854
000350 9f c5 57 3f 5e ff 3a 3f 65 bd 1a be 84 21 84 3e
       0.8428592 0.7304591 -0.15111311 0.2580682
000360 35 5a 9f be de b1 d1 3f 4d a3 96 bf 62 46 15 3f
       -0.3112351 1.6382406 -1.1768585 0.5831052
000370 f3 e4 37 bf 15 51 4e bf 21 96 26 3e e3 b0 56 3f
       -0.71833724 -0.8059247 0.16268207 0.8386366
000380 a9 30 ed be 6e b5 62 3f ff f0 88 be 97 af 9c 3c
       -0.46326187 0.8855809 -0.26746365 0.019126697
000390 dd 29 93 bf 23 a7 80 3e d2 fa ac 3e 9b 35 8f bf
       -1.1497151 0.25127515 0.3378511 -1.1188234
0003a0 ea 86 7b bf d1 91 a4 bd b0 36 9c be 43 99 97 3f
       -0.9825274 -0.08035625 -0.30510473 1.1843647
0003b0 c7 f4 77 bf 19 a5 2c 3f 9c b1 00 be 31 0e b9 bf
       -0.96857876 0.6743942 -0.12567753 -1.4457456
0003c0 c9 57 ac bf f5 29 2e 3f 6b b5 f9 3f 3c d5 c0 3f
       -1.346429 0.6803277 1.9508489 1.5065074
0003d0 79 8c 82 be e2 53 41 bf 34 c3 88 be 94 f3 d2 be
       -0.25497797 -0.7551862 -0.26711428 -0.4120146
0003e0 06 1f 39 bf 9e 9f d1 be 75 0b b8 bf 3e bd f0 be
       -0.72312963 -0.4094209 -1.4378496 -0.4701938
0003f0 9d cb fe bf 38 d7 d1 be 64 6c 0d 3f 3e 51 32 3e
       -1.9905888 -0.4098451 0.55243516 0.17413804

blinear2.bias_sampler.mu f4 [32]
000000 bd f5 ad 3b d1 a3 7c bc ec a5 02 3c ce 99 58 bc
       0.0053088353 -0.015419916 0.007974129 -0.013220264
000010 de 32 2b bc e6 59 84 bb d4 27 9a 3b 2b 76 b8 3c
       -0.010449139 -0.004039037 0.004704455 0.022517284
000020 65 fe c6 3a 1b 36 c2 bc 81 70 61 bc 1f 07 d0 3d
       0.0015182017 -0.02370744 -0.013759733 0.10157608
000030 76 ba 1a 3c 06 68 ae bc ea 6f b6 3c 9e 68 40 3d
       0.00944387 -0.021289837 0.022270162 0.04697477
000040 76 eb bf 3b be a7 b5 39 60 72 0a 3b 28 7a 82 3c
       0.0058569266 0.00034647988 0.0021125302 0.01592739
000050 f2 00 95 ba e1 b2 29 3e 92 7f 00 3b ba 40 f5 3a
       -0.001136808 0.16572143 0.0019607288 0.0018711307
000060 b0 98 b3 3a d6 14 1f bc ee d8 74 3c 20 08 34 39
       0.0013702121 -0.0097095575 0.014944298 0.00017169164
000070 47 84 b7 3c 23 1f a6 bb 06 7e bf 3b 91 88 05 3e
       0.022401942 -0.0050696298 0.0058438806 0.13040377

blinear2.bias_sampler.rho f4 [32]
000000 90 64 59 c0 70 d0 5a c0 7d a0 54 c0 35 64 3c c0
       -3.3967628 -3.418972 -3.3222954 -2.9436162
000010 64 dc 54 c0 ae 88 6a c0 1c 2c 54 c0 04 25 5e c0
       -3.3259516 -3.6645923 -3.3151922 -3.4710093
000020 b1 31 45 c0 17 63 51 c0 75 f5 5d c0 fa 55 62 c0
       -3.081158 -3.271673 -3.4681065 -3.5364976
000030 8f 99 59 c0 7f c7 4b c0 1a a3 3b c0 e0 ab 48 c0
       -3.3999975 -3.1840513 -2.93183 -3.1354904
000040 fa c4 53 c0 b3 fb 4d c0 dc b3 58 c0 28 8f 4d c0
       -3.3088975 -3.2184875 -3.3859777 -3.2118626
000050 8c 3e 3f c0 32 bf 73 c0 8c 8d 31 c0 3a 92 5d c0
       -2.9881926 -3.8085446 -2.7742643 -3.46205
000060 b7 e3 41 c0 7a 99 47 c0 8c f2 56 c0 95 42 55 c0
       -3.0295236 -3.1187425 -3.358554 -3.3321888
000070 71 e8 55 c0 1f 5a 24 c0 03 6c 6f c0 93 23 4b c0
       -3.342312 -2.5680006 -3.7409675 -3.1740463

blinear2.bias_sampler.eps_w f4 [32]
000000 cb ec 59 3f 26 db 0c 3f bc dc 21 40 db 50 ce be
       0.8512694 0.55021894 2.5290976 -0.40296063
000010 97 12 b3 3f 45 39 f4 be c2 40 8b bf 46 b3 a6 be
       1.3990048 -0.47699943 -1.0879138 -0.3255865
000020 29 40 bb bb 94 e9 61 3e b5 66 4b bf f9 78 f6 3e
       -0.0057144356 0.22061759 -0.79453593 0.4813917
000030 dd 03 bc 3f e4 c8 25 be af 2b bf 3f 37 f2 ba 3f
       1.4688679 -0.16189915 1.4935206 1.4605168
000040 99 c4 a3 bd e3 d5 79 3f df 48 5f bf 04 e3 7b bf
       -0.079964824 0.9759199 -0.8722057 -0.98393273
000050 3e 7b 0f 3f a4 20 ee bf 63 10 20 3f ec 7d 05 bf
       0.5604743 -1.8603711 0.62525004 -0.52145267
000060 dc 05 0e 3f 57 67 f5 bf 59 cb 5f bf d6 5c 68 be
       0.5547769 -1.9172162 -0.8741966 -0.22691664
000070 c7 ba 3b 3e 1a 0a bd 3e 92 b1 5a 3f 16 c6 b2 bf
       0.18332969 0.3692177 0.854272 -1.3966701

blinear3.weight_mu f4 [1, 32]
000000 e4 45 26 3c 06 42 a5 3a 03 58 8a 3c ef de 1a 3c
       0.010148499 0.0012608177 0.01688767 0.009452566
000010 00 61 82 ba c9 cf 3e bc de 3d 95 bc 2c cd 15 3a
       -0.0009947121 -0.0116462195 -0.018217977 0.0005714472
000020 55 0d 60 bc d1 05 24 bb 12 e2 58 bc a0 3d 55 be
       -0.013675054 -0.002502788 -0.013237493 -0.2082429
000030 e1 24 44 3c ac b1 21 3c 95 e1 15 3d 35 51 e3 bd
       0.011971683 0.00986902 0.036592085 -0.110994734
000040 97 88 8a bc 84 40 25 3c 94 d6 41 3c c6 42 cf bc
       -0.016910834 0.0100861825 0.011830945 -0.025300395
000050 fd 75 03 3c be 4e c7 3e 33 c7 64 bb 4b 93 66 bc
       0.008023736 0.38927263 -0.003490877 -0.014073203
000060 c1 75 85 bc 88 85 ad bc 98 53 64 bc 06 79 ae bb
       -0.016291501 -0.021181837 -0.013935946 -0.0053244857
000070 0f cb 97 3c d7 55 08 3b e0 4c 47 3c ef 3a 92 be
       0.018529443 0.0020803118 0.0121643245 -0.28560588

blinear3.weight_rho f4 [1, 32]
000000 44 b2 3a c0 41 c0 4c c0 2a 7b 40 c0 ab ed 46 c0
       -2.9171305 -3.1992342 -3.0075173 -3.108256
000010 b1 1b 41 c0 0f e5 5f c0 5c cf 33 c0 2c 53 59 c0
       -3.0173151 -3.4983556 -2.8095312 -3.3957014
000020 f6 24 64 c0 f9 42 65 c0 28 1a 45 c0 7e 87 38 c0
       -3.564756 -3.5822127 -3.0797215 -2.8832698
000030 16 2a 64 c0 86 85 62 c0 e0 a4 40 c0 66 e8 6a c0
       -3.5650687 -3.5393996 -3.0100632 -3.6704345
000040 6c d9 4a c0 e1 53 67 c0 b4 af 43 c0 3a 00 34 c0
       -3.1695204 -3.6144946 -3.057599 -2.8125138
000050 4d 60 6d c0 1b 95 43 c0 17 a2 4b c0 09 91 48 c0
       -3.7090027 -3.0559757 -3.1817682 -3.1338522
000060 6e 86 71 c0 91 1f 49 c0 89 14 4c c0 41 59 28 c0
       -3.77383 -3.1425517 -3.1887534 -2.6304476
000070 81 15 60 c0 2c b8 71 c0 c3 42 43 c0 b3 ff 4e c0
       -3.5013125 -3.776866 -3.0509498 -3.2343566
