uqX/models/uqXmcdo_model.pth (torch, 6855 bytes, 5 tensors)

fc1.weight f4 [32, 1]
0	0x3e3df789	0.18551458
1	0xbe94615f	-0.28980538
2	0xbeb7abe4	-0.3587333
3	0xbe479805	-0.19491585
4	0x3e701278	0.23444545
5	0x3dfa83fa	0.12232204
6	0x3e397e76	0.18114647
7	0x3e85b11b	0.26111683
8	0xbd9702d9	-0.0737359
9	0xbeb07d5b	-0.3447064
10	0x3ed37714	0.41301787
11	0xbe9ce8dc	-0.30646408
12	0xbe9bba3e	-0.3041553
13	0xbe2a7ea1	-0.16649868
14	0x3e64403c	0.22290128
15	0xbe9ed98f	-0.3102536
16	0x3ea58def	0.3233485
17	0xbeb39365	-0.3507339
18	0xbd9740d2	-0.0738541
19	0x3eb2aa34	0.3489548
20	0xbc89318d	-0.01674726
21	0xbefb894a	-0.4912818
22	0xbe395f40	-0.18102741
23	0xbe907a53	-0.28218326
24	0xbec47286	-0.38368624
25	0xbe15a942	-0.14615348
26	0x3ae498df	0.0017440579
27	0xbe39a5ef	-0.18129705
28	0xbea8d784	-0.32976925
29	0xbed5c69a	-0.41753083
30	0xbec1e2e8	-0.37868428
31	0xbeb1a71c	-0.34697807

fc1.bias f4 [32]
0	0x3eb192ff	0.34682462
1	0x3ea28f25	0.31749836
2	0xbff3bb55	-1.9041544
3	0x3e643860	0.2228713
4	0x3ea27b6d	0.3173479
5	0x3e6f540a	0.23371902
6	0x3e99c162	0.30030352
7	0xbf95f27f	-1.1714629
8	0x3e585061	0.21124412
9	0x3ecf5f5a	0.40502435
10	0xc0010495	-2.0159047
11	0xbfcce83a	-1.600837
12	0x3eaa4291	0.3325391
13	0x3ec3d5c9	0.38249043
14	0x3ec998e9	0.39374474
15	0xbf66a031	-0.9008818
16	0xbfbad99d	-1.459766
17	0x3e933be4	0.2875663
18	0x3eb0c724	0.34526932
19	0xbfb25d9e	-1.393482
20	0x3bc5a37b	0.0060314513
21	0xc00b12b9	-2.1730177
22	0x3e380569	0.17970814
23	0x3e963b2c	0.2934202
24	0xc007bca7	-2.1208894
25	0x3ee699c1	0.4503918
26	0x3d3ebe54	0.04656823
27	0xbf1e4ef1	-0.61839205
28	0xbfd392dd	-1.6529194
29	0xbfd26217	-1.6436185
30	0xbfb0b17e	-1.3804166
31	0xbfa9bf34	-1.3261476

fc2.weight f4 [32, 32]
0	0xbda37637	-0.07981532
1	0x3d56db40	0.052455187
2	0x3f831de4	1.0243497
3	0x3e186d01	0.14885332
4	0xb938e2a2	-0.00017632035
5	0xbe909129	-0.28235748
6	0xbe220675	-0.15822776
7	0x3d5b228a	0.053499736
8	0xbd17ef8b	-0.03709368
9	0xbd66da66	-0.056360625
10	0xbde2c94c	-0.110735506
11	0x3e09301f	0.13397263
12	0x3d265ff3	0.040618848
13	0x3d730a65	0.059336085
14	0xbe4c5838	-0.19955528
15	0x3d9cf40a	0.07663734
16	0x3d3ebf22	0.046568997
17	0x3de4eb9d	0.11177752
18	0xbdb07031	-0.08615149
19	0xbe5c82a2	-0.21534207
20	0xbe79a59a	-0.24379578
21	0x3ebb0558	0.36527514
22	0xbdf1591d	-0.11784575
23	0x3ce3700c	0.027763389
24	0x3f69ee4a	0.91379225
25	0x3cb44c0e	0.022008922
26	0xbdcab5de	-0.0989797
27	0x3dbce9da	0.09224291
28	0x3ecc6263	0.39918813
29	0xbddaedb4	-0.106898695
30	0xbd8e9fdd	-0.06964085
31	0x3df71216	0.120639965
32	0x3db09226	0.086216256
33	0xbe4239dd	-0.18967386
34	0xbcaa626e	-0.020798888
35	0xbeaf6daf	-0.3426337
36	0x3c04e19a	0.008110428
37	0x3d0b6fa9	0.034042034
38	0x3d24bcc4	0.040219083
39	0xbeb3af43	-0.35094652
40	0xbd886db8	-0.06661552
41	0xbed33e60	-0.41258526
42	0xbe294fa3	-0.16534285
43	0xbdfbb23a	-0.122898534
44	0xbdf5908b	-0.1199046
45	0xbe8d445f	-0.27591226
46	0x3c88cd29	0.01669939
47	0xbdd648d4	-0.104631096
48	0xbf297d93	-0.66207236
49	0xbdfcf000	-0.12350464
50	0xbc01de47	-0.00792653
51	0xbe1511a5	-0.14557512
52	0x3e16bd83	0.1472073
53	0xbdecb3ec	-0.11557755
54	0xbe5c1476	-0.2149218
55	0xbdd41893	-0.1035625
56	0xbe2f05ff	-0.17092131
57	0xbe160072	-0.14648607
58	0x3e1a47d4	0.15066463
59	0xbd838d7b	-0.0642347
60	0x3ddaa8a5	0.10676698
61	0xbd60100e	-0.05470281
62	0xbe57ce7d	-0.21074863
63	0xbe4fd868	-0.20297396
64	0xbdab7961	-0.083727606
65	0x3d91e236	0.071232244
66	0xbe26a75d	-0.16274782
67	0x3d48daa6	0.049036644
68	0x3bc5353f	0.0060183103
69	0x3dad5825	0.08464078
70	0x3e2d5070	0.16925216
71	0x3e9a5d3e	0.30149263
72	0xbe894c77	-0.2681615
73	0xbe502796	-0.20327601
74	0xbf0673b4	-0.525203
75	0xbdce5055	-0.10073916
76	0xbe2a8766	-0.16653213
77	0x3d89c0f5	0.06726257
78	0x3bfcba49	0.0077126366
79	0xbd8a2992	-0.0674621
80	0xbe7916b1	-0.24325062
81	0xbd83cec0	-0.06435919
82	0xbf0d2f79	-0.5515056
83	0x3ea73cdf	0.32663628
84	0xbd3fa0c2	-0.04678417
85	0xbcd1b511	-0.025599035
86	0xbb033a50	-0.002002377
87	0xbdf15d48	-0.1178537
88	0xbdf23350	-0.11826193
89	0xbe5f6400	-0.2181549
90	0xbeb8a49f	-0.36063096
91	0x3e06bbf5	0.13157637
92	0xbde12323	-0.1099303
93	0x3d258d4f	0.040417966
94	0xbe28db03	-0.16489796
95	0xbd5a40cb	-0.053284448
96	0xbd35328b	-0.044237655
97	0xbea02764	-0.31280053
98	0xbe368ef6	-0.17827973
99	0xbee61a83	-0.44942102
100	0xbd8fd304	-0.0702267
101	0xbcd05aa8	-0.025433853
102	0xbdb14197	-0.086550884
103	0xbf8adf47	-1.0849389
104	0xbe1255c1	-0.14290525
105	0xbe9e9147	-0.30970213
106	0xbef741f1	-0.48292497
107	0x3cd3fb20	0.025876582
108	0xbeace3b6	-0.3376748
109	0xbe43e140	-0.19128895
110	0xbc99bef0	-0.018767804
111	0xbe8781c9	-0.26466206
112	0xbf6fac83	-0.93622607
113	0xbe8a3415	-0.2699286
114	0x3b8b0594	0.0042426083
115	0xbed19051	-0.40930417
116	0x3d355e0d	0.044279147
117	0xbda0efce	-0.07858239
118	0xbeaf907b	-0.34289917
119	0xbf14c947	-0.58119625
120	0xbc13008a	-0.0089722965
121	0xbe27d5ac	-0.16390103
122	0xbda13a15	-0.078724064
123	0xbec39dd2	-0.38206345
124	0xbda42355	-0.080145516
125	0xbeadb19e	-0.33924574
126	0xbd658713	-0.05603702
127	0xbe447c18	-0.19187963
128	0x3dd26ad5	0.10274283
129	0xbe5517bd	-0.20809837
130	0xbdc6cdb8	-0.097072065
131	0xbc7f697c	-0.015589114
132	0x3dff9c9a	0.12481041
133	0x3d896bbe	0.06710003
134	0x3e26eab2	0.16300467
135	0xbb629d73	-0.003457871
136	0xbf344349	-0.7041517
137	0xbe0c3f59	-0.1369604
138	0x3c6bce46	0.014392441
139	0xbda668bc	-0.08125445
140	0x3d82cf62	0.063872114
141	0x3de47955	0.11155955
142	0x3d35e02a	0.044403233
143	0xbcfd7fe3	-0.03094477
144	0x3ed76b6a	0.42074138
145	0x3dc52a26	0.0962718
146	0xbf614f9b	-0.88012093
147	0x3e00646b	0.12538306
148	0x3dcaa085	0.09893898
149	0xbdbfad4f	-0.09359228
150	0xbe466417	-0.19374119
151	0xbcdce34a	-0.026963849
152	0xbd90a380	-0.07062435
153	0xbdb38161	-0.087649114
154	0xbeba543c	-0.3639239
155	0xbdf0866a	-0.117443874
156	0x3df99e97	0.12188452
157	0xbe0cd16d	-0.13751765
158	0xbdb118d1	-0.086473115
159	0xbe0d77aa	-0.1381518
160	0xbf3d2266	-0.7388061
161	0xbd452c9c	-0.048138246
162	0xbed7154d	-0.4200844
163	0xbc8ab3bf	-0.016931413
164	0xbf43e478	-0.7652049
165	0xbf6791b6	-0.9045671
166	0xbf68894b	-0.9083449
167	0xbeaf311b	-0.34217152
168	0xbd705d80	-0.05868292
169	0xbcc14889	-0.023594158
170	0xbe953c39	-0.2914751
171	0xbea7305e	-0.3265409
172	0x3ca46e22	0.020072047
173	0xbd899fc2	-0.067199245
174	0xbf327182	-0.6970445
175	0xbde52ebd	-0.11190555
176	0xbf25f2bc	-0.6482351
177	0x3cceb0ba	0.025230754
178	0x3cc09d24	0.02351243
179	0xbecc7450	-0.3993249
180	0xbd93da70	-0.07219398
181	0xbe897e53	-0.2685419
182	0x3d87f278	0.06638044
183	0xbc656a1a	-0.014002347
184	0xbeb665c4	-0.35624516
185	0xbd45397f	-0.048150536
186	0x3d0195f6	0.031637155
187	0xbb0f8f8b	-0.0021905627
188	0xbef92641	-0.48661998
189	0xbe47c96c	-0.1951043
190	0xbd31d90d	-0.043419886
191	0xbe0e7395	-0.13911279
192	0xbcffd651	-0.031230124
193	0x3e3a56b6	0.1819714
194	0xbe598434	-0.21241838
195	0x3eaf1f2a	0.34203464
196	0x3d3c04d4	0.045903042
197	0xbc5f2e68	-0.013621904
198	0x3e135bb7	0.14390455
199	0x3f2b26d9	0.6685615
200	0xbf19b7ba	-0.6004597
201	0xbca9a395	-0.020707885
202	0xbd81d01a	-0.0633852
203	0xbe4f3a93	-0.20237188
204	0xbea905ee	-0.33012336
205	0x3e3bfe0d	0.18358631
206	0xbe0d431c	-0.13795131
207	0x3d119e89	0.03555158
208	0x3e4aa938	0.19791114
209	0xbdf41867	-0.11918717
210	0xbdc68778	-0.09693807
211	0x3d2f02af	0.04272717
212	0xbc57422e	-0.013138337
213	0xbe0e6dfe	-0.13909146
214	0x3debeae1	0.11519409
215	0xbe09c587	-0.13454257
216	0xbe0e114b	-0.13873784
217	0x3df35b11	0.11882604
218	0x3d98fad6	0.07469718
219	0x3daf9bed	0.08574662
220	0x3cee1067	0.029060556
221	0xbd606f9d	-0.054793943
222	0xbe04c9f9	-0.12967671
223	0xbe2a7020	-0.16644335
224	0xbca6e28a	-0.020371694
225	0xbf1aec95	-0.60517246
226	0xbe0c5462	-0.13704064
227	0xbed46a2d	-0.41487256
228	0x3ba64ea3	0.005075292
229	0xbd0403d3	-0.03223021
230	0x3a210a5c	0.0006143206
231	0xbe94e9ff	-0.29084775
232	0x3c9b7b00	0.01897955
233	0xbf121539	-0.57063633
234	0xbe1f63f7	-0.15565477
235	0x3debb030	0.115082145
236	0xbec20bba	-0.37899572
237	0xbefc37ca	-0.49261314
238	0x3b511796	0.0031904927
239	0xbe372d08	-0.17888272
240	0xbeedc8c3	-0.46442232
241	0xbf05f1d9	-0.52322155
242	0x3e2d96dc	0.1695208
243	0xbe12b51b	-0.14326899
244	0x3c7d2d6d	0.015452725
245	0xbde93092	-0.11386217
246	0xbf05c133	-0.52247924
247	0xbf1c8e85	-0.6115497
248	0xbde1a1b3	-0.1101717
249	0xbea5546e	-0.32290977
250	0x3e44db8f	0.1922438
251	0xbd9b5612	-0.07584776
252	0x3c96bbf0	0.018400162
253	0xbcb04310	-0.021516353
254	0xbe227717	-0.15865742
255	0x3c7c5702	0.015401604

fc2.bias f4 [32]
0	0xbf74b5ac	-0.9558971
1	0x3efb9538	0.49137282
2	0xbecf9166	-0.40540618
3	0x3f2b0149	0.66798836
4	0xbf0990ae	-0.5373639
5	0x3f1b2db5	0.6061662
6	0xbe82f80e	-0.25579876
7	0x3f389537	0.72102684
8	0x3e0b9bc5	0.1363364
9	0x3f17cfe8	0.59301615
10	0x3f49a1e6	0.7876266
11	0x3ef07eaa	0.46971637
12	0x3f49eb01	0.7887421
13	0x3f240fd5	0.6408666
14	0xbe1990d6	-0.14996657
15	0xbe64ff7a	-0.22363082
16	0x3f4207bf	0.7579307
17	0xbbc86de0	-0.0061166137
18	0x3f4aa5bc	0.7915914
19	0x3edd6a1f	0.43245026
20	0x3f450ca8	0.76972437
21	0xbe22d15d	-0.15900178
22	0x3dbfbee3	0.093625806
23	0x3f4ae6c9	0.792584
24	0x3f16fda1	0.58980757
25	0xbf0a243b	-0.53961533
26	0xbe8a95d1	-0.27067426
27	0x3f310912	0.69154465
28	0x3f4c327e	0.79764545
29	0x3ed32b2a	0.4124387
30	0x3f11c27d	0.5693739
31	0x3f182d5a	0.594442

out.weight f4 [1, 32]
0	0x3d447de5	0.047971625
1	0x3e03c1d3	0.12866907
2	0xbe29575c	-0.16537231
3	0x3e3045ae	0.1721408
4	0xbd914167	-0.07092553
5	0xbe217dce	-0.15770647
6	0xbd950f48	-0.07278305
7	0x3e498e26	0.19683132
8	0xbd318265	-0.043337245
9	0xbda38f70	-0.07986343
10	0xbdfe43a8	-0.12415248
11	0x3dff1280	0.124547005
12	0xbdf49a69	-0.11943514
13	0xbddbb00c	-0.10726938
14	0x3d824726	0.06361227
15	0xbc44515e	-0.01198229
16	0x3e16c0bc	0.1472196
17	0xbd554d11	-0.05207545
18	0xbdbd0d42	-0.09231044
19	0x3e06eb5f	0.13175724
20	0xbdfddadb	-0.12395259
21	0xbb6669de	-0.0035158317
22	0xbd7f5e34	-0.0623457
23	0x3de76bfa	0.11299892
24	0x3e25e0ab	0.16198985
25	0xbe24c4da	-0.16090718
26	0x3a962c26	0.0011457249
27	0x3e1dd2a4	0.15412384
28	0x3e1506c1	0.14553358
29	0xbddf48c0	-0.10902548
30	0xbdb7f1e1	-0.089816816
31	0x3e177f6f	0.14794706
